agentv0.pth (torch, 37279 bytes, 4 tensors)

fc1.weight f4 [128, 64]
0.109407485 -0.04312615 0.10079834 0.12818177 0.011493172 -0.07578173 0.11175965 -0.091135934
0.17219383 0.099280596 -0.0060990304 0.038542002 -0.11204028 -0.08098382 -0.03336136 -0.09664205
-0.0022763575 0.10123384 -0.034781624 -0.07088227 -0.08484228 -0.08881344 -0.11394745 0.02642081
0.028252473 -0.10911045 -0.06445239 -0.044995986 -0.09028734 0.03873663 0.19869478 0.08447125
0.11018179 0.054335788 0.07024932 0.0994796 -0.015660852 -0.044341654 -0.15422729 -0.107529506
-0.025345325 0.01473093 0.08919883 0.01596951 -0.1573295 -0.42844063 0.22564587 -0.035380397
-0.24959181 -0.1088852 -0.078057036 0.112056226 0.014027461 0.07362044 -0.0029511452 0.026715219
0.082542315 -0.0424888 -0.029924303 -0.05444342 -0.11059992 0.09827009 -0.08252086 0.09149191
-0.009544462 -0.11041415 -0.009475518 -0.0037753284 0.02448009 0.09879723 -0.109136194 0.1795866
-0.2954759 0.04933998 0.020268947 0.1496469 0.01334492 -0.13021234 0.065012366 -0.10709882
0.055654805 0.037093274 -0.06400121 0.1126071 -0.018651024 0.03750726 0.12612769 -0.01598519
0.020045483 0.112784065 -0.16714747 0.028524242 -0.118098535 -0.009908419 -0.07246259 -0.0415215
0.03941632 0.029917851 0.124152124 0.0727177 -0.030588046 0.0017107723 0.07384858 0.02889371
-0.033494607 -0.11775632 -0.1370077 -0.07181592 -0.0047182557 -0.0869298 0.085956976 -0.05677165
-0.03891545 0.025977273 -0.06812606 0.11729878 -0.09645435 -0.11359413 -0.053459212 -0.10348536
-0.07120326 -0.073510095 -0.10391949 -0.065728426 -0.1124837 0.022351054 -0.022404067 -0.17074826
0.08430119 -0.12445821 0.104675144 -0.10365045 -0.0020134002 -0.013427973 -0.10839549 -0.11830577
0.13722354 0.056234647 0.11721058 -0.1065813 -0.82792664 -0.005953531 -0.38740772 0.05493658
-0.111048885 -0.05093393 -0.22589584 0.11007433 0.1313698 -0.25997007 -0.009393959 0.10176372
-0.42320827 -0.044400908 0.017849341 0.05163096 0.006134676 -0.0732884 -0.40034902 -0.45329523
-0.026259959 -0.03731928 -0.08002822 -0.11316861 0.043662235 -0.054502886 0.0053953757 0.015473783
-0.046869338 0.07107857 0.05248615 -0.11862704 0.046386 0.052843325 0.10337686 0.0123701235
-0.106314674 -0.20864429 0.031374212 0.081571534 0.0880125 -0.055504605 0.11267437 -0.044603676
0.07382849 0.12393375 -0.002524674 0.051713526 0.02531345 0.034526147 0.014711058 -0.014518851
0.034693927 0.045963332 0.06445667 -0.20260008 -0.11584967 0.057685584 0.04363972 -0.07011934
0.082916155 0.061096396 0.029476166 0.047214024 -0.0025976875 -0.02972276 0.011000413 -0.12704982
0.09875331 0.051518574 -0.06747983 -0.006816269 -0.035644382 -0.1317613 0.06979355 0.05906039
-0.041722823 -0.002539288 -0.07256015 -0.10907811 0.03380671 -0.12300572 -0.050051622 -0.043265272
0.0077866116 0.08757406 0.07977827 0.07089863 -0.02604933 -0.12134389 0.12660338 0.034377396
0.014597923 -0.11069451 0.3535435 -0.031201288 0.08050452 -0.224192 -0.15955406 0.107242025
-0.09513561 -0.045693103 -0.015714824 -0.10578628 -0.060887873 0.08792114 0.07574423 0.11991039
0.008902028 0.054983273 0.08485107 -0.00012564659 -0.027911918 -0.07696934 -0.017283423 0.04649856
00000000: 0811 e03d 0ca5 30bd 5c6f ce3d 1542 033e
00000010: db4d 3c3c 7433 9bbd 3ee2 e43d 7aa5 babd
00000020: 9453 303e a053 cb3d 60da c7bb 38de 1d3d
00000030: 6075 e5bd d8da a5bd eca5 08bd 44ec c5bd
00000040: f12e 15bb b053 cf3d 2d77 0ebd b92a 91bd
00000050: cac1 adbd d2e3 b5bd 485d e9bd 7470 d83c
00000060: bb71 e73c 4d75 dfbd 9dff 83bd b64d 38bd
00000070: 92e8 b8bd 4daa 1e3d a576 4b3e 43ff ac3d
00000080: fea6 e13d 348f 5e3d e0de 8f3d f6bb cb3d
00000090: 304b 80bc 989f 35bd c2ed 1dbe 6e38 dcbd
000000a0: 00a1 cfbc 005a 713c e0ad b63d 7dd2 823c
000000b0: fc1a 21be 925c dbbe b60f 673e 09eb 10bd
000000c0: ff94 7fbe 34ff debd 5edc 9fbd bc7d e53d
000000d0: 70d3 653c 50c6 963d 0068 41bb e0d9 da3c
000000e0: f20b a93d bc08 2ebd d023 f5bc 1000 5fbd
000000f0: 3682 e2bd d441 c93d b200 a9bd 1c60 bb3d
00000100: 6060 1cbc d020 e2bd 343f 1bbc 806b 77bb
00000110: 788a c83c 3456 ca3d cc82 dfbd 8de5 373e
00000120: 9e48 97be b818 4a3d 100b a63c 093d 193e
00000130: a7a4 5a3c 6256 05be 3425 853d a056 dbbd
00000140: 4bf6 633d 1eef 173d 1113 83bd 8d9e e63d
00000150: 08ca 98bc 36a1 193d 9e27 013e 60f3 82bc
00000160: 6d36 a43c 55fb e63d b528 2bbe acab e93c
00000170: a5dd f1bd ec56 22bc 4467 94bd 7312 2abd
00000180: 0273 213d 4816 f53c 7843 fe3d 04ed 943d
00000190: c893 fabc fe3b e03a ed3d 973d 80b2 ec3c
000001a0: a431 09bd 3a2a f1bd bf4b 0cbe 3a14 93bd
000001b0: 999b 9abb 4008 b2bd 360a b03d 6489 68bd
000001c0: cf65 1fbd 4ace d43c ad85 8bbd 583a f03d
000001d0: dc89 c5bd 0aa4 e8bd 0cf8 5abd 22f0 d3bd
000001e0: 04d3 91bd 768c 96bd bed3 d4bd a09c 86bd
000001f0: db5d e6bd 8f19 b73c bc88 b7bc a2d8 2ebe
00000200: 1aa6 ac3d f2e3 febd ec5f d63d b046 d4bd
00000210: 40f3 03bb 0001 5cbc 74fe ddbd 4c4a f2bd
00000220: 5484 0c3e 4d56 663d 1a0c f03d 4c47 dabd
00000230: 00f3 53bf d615 c3bb 4e5a c6be 2e05 613d
00000240: 996d e3bd 19a0 50bd 3d51 67be a66e e13d
00000250: ce85 063e cc1a 85be 1fe9 19bc 7f69 d03d
00000260: c1ae d8be badd 35bd c838 923c fc7a 533d
00000270: 6405 c93b 3b18 96bd 8cfa ccbe 5016 e8be
00000280: 201f d7bc 1adc 18bd d6e5 a3bd f2c4 e7bd
00000290: 2cd7 323d 6b3e 5fbd b1cb b03b c085 7d3c
000002a0: 10fa 3fbd a491 913d b8fb 563d bcf2 f2bd
000002b0: 3fff 3d3d 3e72 583d 3fb7 d33d 0fac 4a3c
000002c0: 82bb d9bd d9a6 55be 3f82 003d fa0e a73d
000002d0: e63f b43d cc58 63bd d2c1 e63d 58b2 36bd
000002e0: 6433 973d fad0 fd3d 0075 25bb 90d1 533d
000002f0: 275e cf3c 4a6b 0d3d a606 713c 7ae0 6dbc
00000300: 381b 0e3d 0c44 3c3d dc01 843d 6576 4fbe
00000310: 9742 edbd b847 6c3d 90bf 323d bb9a 8fbd
00000320: f2cf a93d 3740 7a3d 0078 f13c 7e63 413d
00000330: f73d 2abb 257d f3bc 143b 343c 5919 02be
00000340: 2d3f ca3d 2405 533d dd32 8abd 025b dfbb
00000350: d8ff 11bd 6fec 06be ecef 8e3d 4fe9 713d
00000360: 8de5 2abd 2f6a 26bb 6a9a 94bd 5864 dfbd
00000370: e878 0a3d 6cea fbbd ee02 4dbd ed36 31bd
00000380: d526 ff3b 075a b33d ca62 a33d 4d33 913d
00000390: 6865 d5bc 2583 f8bd 51a4 013e 50cf 0c3d
000003a0: 202c 6f3c ceb3 e2bd a703 b53e d899 ffbc
000003b0: 8edf a43d 9692 65be 2462 23be b5a1 db3d
000003c0: 75d6 c2bd b128 3bbd 60bc 80bc 7aa6 d8bd
000003d0: 9065 79bd 0010 b43d ca1f 9b3d 9493 f53d
000003e0: d0d9 113c 2436 613d 66c6 ad3d 00c0 03b9
000003f0: 89a7 e4bc 1aa2 9dbd f795 8dbc 4675 3e3d

fc1.bias f4 [128]
-0.17841397 0.12744002 0.087475 -0.054596305 0.04935164 0.12844329 -0.054980215 -0.03555993
0.056956194 -0.11952125 0.062043034 -0.15918866 -0.13330378 -0.09733385 -0.05079742 -0.17456423
0.07249655 0.06624814 0.043162476 0.008713482 0.019178495 -0.11517736 0.08755975 -0.030075118
0.03464066 -0.1432787 -0.1159418 -0.04983674 -0.10406091 -0.014178857 -0.01945556 -0.004585301
0.004060319 0.10362952 -0.10155549 0.03720555 -0.14906874 -0.13544786 0.071348876 0.023842484
-0.043573882 0.10424626 -0.056280605 -0.06836108 0.074542284 -0.11120244 0.030835966 0.009108706
0.10629511 -0.023896327 -0.085181415 0.021118766 0.06789664 0.014308063 -0.037164386 -0.056081932
0.10970983 0.08339865 0.10860389 -0.1343573 -0.15625514 -0.07547312 0.081620954 0.03032252
-0.10611499 0.07106306 -0.11354641 0.044272855 -0.039036203 -0.066273145 -0.07775277 0.028604468
0.02337437 -0.0017877539 0.10971053 -0.12580329 0.08362646 -0.028252482 0.14669919 -0.043645952
0.027366178 -0.07432583 -0.12522955 -0.06742041 0.0641153 0.078210674 -0.09530346 -0.007851359
0.06784159 0.07845901 0.012969916 0.005939593 -0.0979256 -0.033760507 -0.004499063 0.016405918
-0.0441551 0.11516572 0.036696237 -0.09590967 0.0060756346 -0.07295458 0.0165762 0.04852377
0.0558842 0.026641792 -0.055707097 0.14663549 0.0314078 -0.074194185 0.096340545 0.058802266
-0.047546238 0.009981244 -0.016308859 0.084011905 -0.055840272 -0.18282646 -0.048699092 -0.023583287
0.09431037 -0.02956985 -0.07962205 0.026137052 -0.07077445 0.002758367 -0.008741396 0.020041857
00000000: 27b2 36be a37f 023e 1826 b33d 60a0 5fbd
00000010: f224 4a3d a386 033e ef32 61bd 4aa7 11bd
00000020: e64a 693d 8fc7 f4bd d620 7e3d 5a02 23be
00000030: c980 08be f856 c7bd f510 50bd f7c0 32be
00000040: 1279 943d 1bad 873d 23cb 303d fec2 0e3c
00000050: 381c 9d3c 1ce2 ebbd 8752 b33d 1860 f6bc
00000060: 5de3 0d3d a7b7 12be e572 edbd 9c21 4cbd
00000070: e31d d5bd 704e 68bc 4461 9fbc 4b40 96bb
00000080: 6d0c 853b b73b d43d 53fc cfbd d964 183d
00000090: 7aa5 18be d8b2 0abe 5c1f 923d 5051 c33c
000000a0: 877a 32bd 107f d53d 7e86 66bd e500 8cbd
000000b0: a0a9 983d 1bbe e3bd b59b fc3c af3c 153c
000000c0: 40b1 d93d 3bc2 c3bc 9873 aebd 4301 ad3c
000000d0: 650d 8b3d 5e6c 6a3c af39 18bd 2bb6 65bd
000000e0: 8caf e03d e9cc aa3d b76b de3d f694 09be
000000f0: 5901 20be a791 9abd e328 a73d ef66 f83c
00000100: d152 d9bd 8289 913d 058b e8bd 7457 353d
00000110: 6de4 1fbd 37ba 87bd d83c 9fbd eb53 ea3c
00000120: 9b7b bf3c 1153 eaba eaaf e03d 94d2 00be
00000130: 5944 ab3d c071 e7bc 5038 163e 19c6 32bd
00000140: 092f e03c 2438 98bd 2d3c 00be b613 8abd
00000150: e24e 833d eb2c a03d 762e c3bd fda2 00bc
00000160: 88f0 8a3d 1eaf a03d c57f 543c eba0 c23b
00000170: 388d c8bd 7548 0abd e06c 93bb b465 863c
00000180: fadb 34bd 01dc eb3d cb4e 163d 4a6c c4bd
00000190: 1e16 c73b 3669 95bd d0ca 873c dcc0 463d
000001a0: d5e6 643d e33f da3c 202d 64bd 9d27 163e
000001b0: 77a5 003d 1ff3 97bd 314e c53d a5da 703d
000001c0: d8bf 42bd 5f88 233c 289a 85bc 6f0e ac3d
000001d0: c5b8 64bd dc36 3bbe b378 47bd bd31 c1bc
000001e0: cc25 c13d 783c f2bc e310 a3bd 5f1d d63c
000001f0: 32f2 90bd b8c5 343b 1238 0fbc d22e a43c

fc2.weight f4 [5, 128]
0.023938347 0.0788265 -0.12161774 0.09663359 0.062190946 -0.04552063 0.08965348 -0.18884891
0.024873551 0.0597547 0.058801174 0.0616797 -0.04180474 -0.031106597 0.02660309 0.0876124
-0.0066311536 -0.060041256 -0.044176053 -0.05327888 -0.043396685 -0.035813604 0.031197995 0.04032857
-0.014600569 -0.020983975 0.055416636 0.09460738 0.090869024 0.08317483 -0.005940437 0.00952152
-0.010800667 -0.039734025 0.011021988 -0.022024056 0.07562545 -0.016599279 0.080858216 -0.017628936
-0.00901658 -0.06153164 0.08585041 -0.06376073 0.021278162 0.10342346 -0.00020406829 -0.1335081
0.054155063 -0.0106139425 0.0021995776 0.06933842 0.018177215 -0.09803252 0.026065275 0.10770805
0.076501064 -0.051887833 0.09880764 0.08534713 -0.16421092 0.1382219 0.05239521 -0.049227417
0.007806896 -0.027519988 -0.030756716 -0.087287664 0.10888511 0.01791923 -0.0527756 0.0515712
0.0697583 0.08737072 -0.00057651865 -0.05568287 0.009417326 0.012048775 0.06508019 0.0058246064
0.11070283 -0.024944093 0.100199856 0.04663825 0.043518882 -0.17311367 0.049515493 0.013996274
0.052376427 0.08052611 0.15416092 -0.7206052 -0.039535526 -0.053111866 -0.01087271 0.0048512635
0.048728216 -0.03263669 -0.016912015 -0.057287846 0.03533058 -0.03552694 -0.11038742 0.017844113
-0.0001846166 -0.050880477 0.10203779 0.048058856 -0.0027591984 0.08314342 -0.04852407 0.0032115232
-0.016282666 -0.02922214 0.06289338 0.06813546 0.0006600593 0.009093025 0.04408907 0.0031464978
0.08195161 -0.016559713 -0.059384435 -0.14018671 -0.17186643 -0.07536002 0.031388357 -0.04835095
-0.1682081 0.07384594 0.146252 0.06689868 -0.09943234 0.071241505 -0.15874313 0.08681353
0.03636019 0.051302217 -0.025179444 -0.1394263 0.0086154 0.073517084 -0.0726146 0.16053581
-0.057691213 -0.41010836 0.087463416 0.025134053 0.073197715 -0.02603135 -0.068648934 0.0849318
-0.36990112 -0.034589026 0.08181175 -0.08906976 0.020146241 -0.062975906 0.0072167646 0.041767415
0.053886406 -0.017538188 0.024437238 0.035245568 -0.07157082 0.029391315 0.056093518 0.10909554
0.14956914 0.22313744 -0.06128999 0.07638548 -0.052638587 -0.035397854 0.033094205 0.0734757
0.15379143 -0.045564093 -0.012707206 0.10735466 -0.05573189 0.06753575 0.040635575 0.08468024
-0.0016779285 -0.056930196 0.11502273 0.108020134 0.10356862 0.16648555 -0.022152083 -0.07806232
0.097378604 -0.017944263 -0.032486167 0.04128204 -0.22813253 0.058255695 0.046466373 0.1267264
-0.40731487 0.119159944 0.036390014 0.10510814 0.06908954 -0.2108401 0.12870476 -0.0655109
-0.012329517 0.21385677 0.043751054 0.01155702 0.07716542 -0.20046316 0.07921181 0.015196035
-0.028498529 -0.31580517 -0.09689126 0.2124515 -0.13331972 -0.022806497 0.036200486 0.13230595
-0.2854068 -0.05152825 0.09167047 0.07182384 -0.037548423 0.08125417 0.14518638 -0.07768401
-0.094927475 0.015830653 0.11369102 -0.10689771 -0.05441301 0.0038279118 0.11787545 0.009842357
-0.076288074 0.23649684 -0.073597685 -0.006307453 -0.036420133 0.054496817 -0.11983115 0.018572
-0.11873897 -0.03722037 0.032675847 0.022248887 0.018359058 0.053780332 -0.094583966 -0.14530063
00000000: 5a1a c43c ca6f a13d b912 f9bd d5e7 c53d
00000010: efbb 7e3d d773 3abd 3e9c b73d 9c61 41be
00000020: 9ec3 cb3c 58c1 743d 80d9 703d daa3 7c3d
00000030: 723b 2bbd 43d3 febc b9ee d93c 216e b33d
00000040: 264a d9bb d2ed 75bd f3f1 34bd f43a 5abd
00000050: b9c0 31bd 49b1 12bd f092 ff3c 922f 253d
00000060: 3a37 6fbc 96e6 abbc 8efc 623d 84c1 c13d
00000070: 8a19 ba3d 9157 aa3d ffa7 c2bb 2600 1c3c
00000080: 48f5 30bc 25c0 22bd 9195 343c cb6b b4bc
00000090: 84e1 9a3d 36fb 87bc fe98 a53d 8f6a 90bc
000000a0: 47ba 13bc 9a08 7cbd 57d2 af3d fc94 82bd
000000b0: 8a4f ae3c aecf d33d 2afb 55b9 59b6 08be
000000c0: b3d1 5d3d 1ae6 2dbc ca26 103b 4d01 8e3d
000000d0: 62e8 943c 46c5 c8bd d886 d53c 0a96 dc3d
000000e0: 97ac 9c3d 5688 54bd a95b ca3d 7aca ae3d
000000f0: e826 28be 0b8a 0d3e 5c9c 563d b0a2 49bd
00000100: fed0 ff3b 9971 e1bc 82f5 fbbc e0c3 b2bd
00000110: 28ff de3d 59cb 923c 3a2b 58bd 533c 533d
00000120: 71dd 8e3d 6cef b23d 8321 17ba b913 64bd
00000130: 214b 1a3c 3a68 453c c348 853d 57dc be3b
00000140: 2ab8 e23d 8e57 ccbc 9535 cd3d c007 3f3d
00000150: db40 323d b644 31be c2d0 4a3d a150 653c
00000160: aa88 563d e0ea a43d 5cdc 1d3e 9579 38bf
00000170: 01f0 21bd d48b 59bd 7323 32bc 59f7 9e3b
00000180: 3d97 473d 0dae 05bd 118b 8abc a9a6 6abd
00000190: ccb6 103d b284 11bd cd12 e2bd d12d 923c
000001a0: a495 41b9 0c68 50bd 30f9 d03d 5dd9 443d
000001b0: abd3 34bb 1947 aa3d 2dc1 46bd 6b78 523b
000001c0: 3a63 85bc 4563 efbc 3fce 803d 9b8a 8b3d
000001d0: d407 2d3a e9fa 143c be96 343d 7935 4e3b
000001e0: 3fd6 a73d 3ca8 87bc 183d 73bd 1b8d 0fbe
000001f0: c1fd 2fbe 5b56 9abd 1491 003d a50b 46bd
00000200: bf3e 2cbe 8a3c 973d 16c3 153e 2d02 893d
00000210: 2fa3 cbbd 11e7 913d 8f8d 22be 4bcb b13d
00000220: 6cee 143d 4622 523d 1f45 cebc c5c5 0ebe
00000230: 9b27 0d3c 2090 963d f7b6 94bd 8063 243e
00000240: 9f4d 6cbd b9f9 d1be 0520 b33d eee5 cd3c
00000250: afe8 953d b33f d5bc d097 8cbd b9f0 ad3d
00000260: ae63 bdbe 39ad 0dbd eb8c a73d 356a b6bd
00000270: bb09 a53c 83f9 80bd 9c7a ec3b 4f14 2b3d
00000280: feb7 5c3d 3fac 8fbc 9a30 c83c a85d 103d
00000290: b993 92bd 0ec6 f03c 51c2 653d 7c6d df3d
000002a0: a728 193e 247e 643e 360b 7bbd fe6f 9c3d
000002b0: 8f9b 57bd 57fd 10bd ca8d 073d 6e7a 963d
000002c0: 807b 1d3e 6aa1 3abd e331 50bc c3dc db3d
000002d0: 1f47 64bd 2f50 8a3d 7d71 263d d56c ad3d
000002e0: f0ed dbba a32f 69bd 0991 eb3d a939 dd3d
000002f0: c91b d43d 307b 2a3e 4978 b5bc 23df 9fbd
00000300: 6f6e c73d d9ff 92bc 3710 05bd 5b17 293d
00000310: 939b 69be 869d 6e3d 8653 3e3d 91c4 013e
00000320: 938b d0be 210a f43d b20d 153d f042 d73d
00000330: d17e 8d3d 78e6 57be 2ecb 033e 942a 86bd
00000340: be01 4abc 45fd 5a3e 4e34 333d a859 3d3c
00000350: e708 9e3d 3746 4dbe cd39 a23d caf8 783c
00000360: bf75 e9bc 37b1 a1be ed6e c6bd e38c 593e
00000370: f784 08be b1d4 babc f646 143d 367b 073e
00000380: d720 92be 490f 53bd babd bb3d 6118 933d
00000390: 60cc 19bd 9668 a63d bdab 143e cb18 9fbd
000003a0: 5669 c2bd 49af 813c d6d6 e83d 30ed dabd
000003b0: 2de0 5ebd b4dd 7a3b af68 f13d d641 213c
000003c0: ec3c 9cbd 3a2c 723e 62ba 96bd c0ae cebb
000003d0: 472d 15bd 0e38 5f3d 096a f5bd 4f24 983c
000003e0: 6b2d f3bd 6374 18bd 1cd7 053d 4c43 b63c
000003f0: bc65 963c c448 5c3d 3db5 c1bd b0c9 14be

fc2.bias f4 [5]
-0.035626862 0.081322424 -0.030469885 0.06827018 -0.07132987
00000000: 79ed 11bd 5f8c a63d fb9b f9bc 3cd1 8b3d
00000010: 6515 92bd
