agentv1.pth (torch, 37279 bytes, 4 tensors)

fc1.weight f4 [128, 64]
0	0xbc82fe70	-0.015990466
1	0x3da158ca	0.07878263
2	0xbddb24ac	-0.10700354
3	0xba845ce1	-0.0010098481
4	0xbcc966fa	-0.024585236
5	0x3d1e0e08	0.0385876
6	0x3d1c639c	0.038180932
7	0xbd69dfc4	-0.057098165
8	0x3d0db238	0.03459379
9	0x3b83e071	0.0040245582
10	0xb9c8ba00	-0.00038285553
11	0xbd8e7a29	-0.06956894
12	0x3e55bd93	0.20873098
13	0x3df504ce	0.11963807
14	0x3e3c97df	0.18417309
15	0x3e62c8e7	0.2214695
16	0xbba810ac	-0.0051289406
17	0xbd9b43ff	-0.075813286
18	0x3dbfb055	0.093598045
19	0x3d86d96f	0.06584441
20	0xbdbd66fd	-0.09248159
21	0x3d9ba1f8	0.075992525
22	0xbd01c229	-0.031679306
23	0xbdf239c5	-0.11827425
24	0xbcd85acf	-0.026410488
25	0xbd0848c7	-0.03327253
26	0xbdfc28c5	-0.12312464
27	0xbe0d64f9	-0.1380805
28	0xba4aa3ae	-0.00077300787
29	0x3d97042d	0.07373843
30	0xbd9bff09	-0.076170035
31	0xbdf49239	-0.11941952
32	0xbd864100	-0.065553665
33	0x3df4eb50	0.11958945
34	0x3de53ff4	0.11193839
35	0xbde2f17e	-0.11081217
36	0x3d4d80c4	0.05017163
37	0xbdce1139	-0.10061879
38	0x3da2686b	0.079300724
39	0xbd3d188c	-0.046165988
40	0x3c783030	0.015148208
41	0x3d85b1d4	0.06528059
42	0x3d90e9c2	0.07075836
43	0xbd525afe	-0.05135631
44	0xbd9dd7bc	-0.07707164
45	0xbed11469	-0.40835884
46	0x3e05432d	0.13013907
47	0xb9f13e47	-0.00046013502
48	0xbe1fbb5c	-0.15598816
49	0xbd032ebd	-0.032026995
50	0xbcc6f5af	-0.024287073
51	0xbe4fa60d	-0.20278187
52	0xbda8f250	-0.082493424
53	0xbd9c5378	-0.07633108
54	0xbdeeb828	-0.11656219
55	0xbcd55118	-0.026039645
56	0xbdf7cf3c	-0.12100074
57	0x3d229458	0.039692253
58	0x3cfb4d48	0.030676499
59	0x3de1b9ee	0.110217914
60	0x3d9c1118	0.07620448
61	0xbbd1f5bc	-0.0064074676
62	0xbed7f848	-0.4218161
63	0xbe181214	-0.14850646
64	0xbdc07590	-0.09397423
65	0xbd8b7f9a	-0.068114474
66	0xbcbb9088	-0.022896066
67	0x3cb8a0e8	0.022537664
68	0xbdeef37d	-0.116675355
69	0x3df0a060	0.11749339
70	0xbdf2598e	-0.118334875
71	0x3c0d1d10	0.008612886
72	0x3d1081a0	0.03527987
73	0x3da9a56a	0.08283503
74	0x3de44262	0.11145474
75	0xbd34e54a	-0.04416398
76	0xbcf2936a	-0.029611308
77	0x3ea44e73	0.32091102
78	0x3c18550a	0.009297619
79	0x3e14e42a	0.14540163
80	0xbe6c52af	-0.23078416
81	0x3c71e908	0.014765032
82	0xbdcb3007	-0.0992127
83	0x3d4fae2b	0.05070321
84	0xbe2ae5d7	-0.1668924
85	0xbd2c8e36	-0.04212781
86	0x3dab9911	0.083788045
87	0xbcec9a47	-0.028882159
88	0xbdef8ee9	-0.1169718
89	0xbdf68e67	-0.1203888
90	0x3e18043e	0.14845368
91	0x3e39a471	0.18129136
92	0x3dfd5488	0.12369639
93	0x3db5ea3c	0.08882567
94	0x3daa8484	0.083260566
95	0x3e1ef4ad	0.15523024
96	0xbd49e1f7	-0.049287762
97	0xbdd0de62	-0.10198666
98	0x3ce57018	0.028007552
99	0xbdcfdf0c	-0.10149965
100	0xbc5b28e0	-0.013376445
101	0x3e095efd	0.13415141
102	0x3c8ff304	0.017571934
103	0xbb749480	-0.0037319958
104	0xbd05d068	-0.032669455
105	0xbda75ca4	-0.08171967
106	0xbd41bf8a	-0.047301807
107	0x3e084a9d	0.13309713
108	0x3e017a62	0.12644342
109	0x3cc33993	0.023831164
110	0xbd5c8dca	-0.053846158
111	0x3d365831	0.0445177
112	0xbcaa6fc6	-0.02080525
113	0xbd3481a8	-0.044068962
114	0x3da776dd	0.08176968
115	0x3db6d154	0.08926645
116	0xbddc5a36	-0.10759394
117	0xbdc5d906	-0.096605346
118	0xbcfe0420	-0.031007826
119	0xbdcd0938	-0.10011524
120	0x3c85b180	0.01631999
121	0xbde4cf42	-0.11172344
122	0x3c652f90	0.013988391
123	0xbdf6fc8a	-0.12059887
124	0x3dd0d3c8	0.10196644
125	0x3c0b7f5a	0.00851425
126	0xbdbbe425	-0.091743745
127	0x3e582675	0.2110842
128	0xbdad7f78	-0.08471578
129	0xbd5232b8	-0.0513179
130	0x3dbe712c	0.092989296
131	0x3e6d9c41	0.23204137
132	0x3dcb4cc7	0.099267535
133	0x3c950c70	0.018194407
134	0xbd41d888	-0.04732564
135	0x3f8d993b	1.1062387
136	0xbd2389fc	-0.039926514
137	0xbbeca6e1	-0.007222042
138	0x3d5c7078	0.053818196
139	0xbd5afc7e	-0.05346345
140	0x3e173ba4	0.14768845
141	0xbdece7db	-0.115676604
142	0xbf1003ff	-0.562561
143	0x3e34bbb1	0.17649724
144	0xbdd9aa9e	-0.10628246
145	0xbe6afac6	-0.22947225
146	0x3dc8f59a	0.0981247
147	0xbcee926f	-0.02912256
148	0x3c7bbf32	0.015365409
149	0x3dca77da	0.09886141
150	0xbd821c3d	-0.06353042
151	0xbee8578b	-0.4537929
152	0x3aa3a053	0.0012483693
153	0xbd5719ea	-0.052514948
154	0xbe1aa100	-0.15100479
155	0xbdf42337	-0.11920779
156	0xbbc1775c	-0.0059041213
157	0x3e1b7cbb	0.151843
158	0xbe9598f4	-0.29218256
159	0xbd136b07	-0.03599074
160	0x3d93f68a	0.07224758
161	0xbd889ecc	-0.06670913
162	0xbbb91e80	-0.005649388
163	0x3d48033c	0.04883121
164	0xbd48c7d0	-0.04901868
165	0xbda6f2d8	-0.081517875
166	0x39bf3d5e	0.0003647608
167	0x3c2ea370	0.010659084
168	0xbdc9fcc4	-0.09862664
169	0x3de44ac0	0.1114707
170	0x3de810b0	0.11331308
171	0x3d8b75ce	0.06809579
172	0xbd833fa4	-0.06408623
173	0xbbed8995	-0.007249067
174	0x3a0b1cf8	0.0005306746
175	0xbcbfc599	-0.023409652
176	0xbc8e5437	-0.017374141
177	0xbdb658fe	-0.08903693
178	0x3cc880af	0.024475424
179	0xbcff0348	-0.031129494
180	0x3bbe2980	0.005803287
181	0x3ded031e	0.1157286
182	0xbda7bcce	-0.081903085
183	0xbd515e3c	-0.05111526
184	0xbd76b400	-0.060230255
185	0xbdfd61b4	-0.12372151
186	0xbd7961e0	-0.060884356
187	0x3d55a27c	0.05215691
188	0x3de5fda6	0.1123002
189	0x3d39d594	0.0453697
190	0xbc67b430	-0.014142081
191	0xbd1cbfe0	-0.038268924
192	0xbc81d358	-0.015847847
193	0x3dff942c	0.124794334
194	0x3dd30f3e	0.103056416
195	0x3dc986dc	0.098401755
196	0xbdcfb3a8	-0.101416886
197	0xbdffca66	-0.12489776
198	0xbdc08ec4	-0.094022304
199	0xbdc07e6c	-0.09399113
200	0x3c694520	0.014237672
201	0xbdd2289c	-0.10261652
202	0x3db66b40	0.08907175
203	0xbd8d9456	-0.069130585
204	0xbca79c60	-0.020460308
205	0x3db9a002	0.09063722
206	0x3c0eb120	0.008709222
207	0xbd10eda0	-0.035382867
208	0xbe174452	-0.14772156
209	0xbe1c0d00	-0.15239334
210	0x3baf860c	0.005356556
211	0xbda6faa2	-0.08153273
212	0x3da9b30c	0.082861036
213	0xbc072cf0	-0.00825046
214	0x3c2a2f70	0.010387287
215	0x3deb7c36	0.11498301
216	0xbdf97e90	-0.12182343
217	0xbc8e7f90	-0.01739481
218	0x3cb961c0	0.022629619
219	0x3d9766fe	0.07392691
220	0x3d91e18a	0.07123096
221	0x3db6c364	0.089239866
222	0x3c9e03d8	0.019288942
223	0xbdd8b124	-0.10580662
224	0x3d610260	0.054933906
225	0xbde83924	-0.11339024
226	0x3de82278	0.113346994
227	0xbdf51d10	-0.11968434
228	0xbc55a8f0	-0.013040766
229	0xbd9dcc64	-0.07705
230	0xbddc7100	-0.107637405
231	0x3d811d1c	0.0630438
232	0x3de3c71c	0.111219615
233	0x3dc9c72a	0.09852441
234	0x3d1990f0	0.03749174
235	0xbdd9af58	-0.10629147
236	0xbdfe622a	-0.12421067
237	0xbdd499d6	-0.103809044
238	0xbddb1356	-0.106970474
239	0x3cd0d350	0.025491387
240	0xbd4954d4	-0.049153164
241	0xbcf33440	-0.029688
242	0xbd6fadc8	-0.05851534
243	0x3dc888ee	0.09791742
244	0xbd907ef4	-0.070554644
245	0xbdc2d2c8	-0.095128596
246	0x3d5160d4	0.051117733
247	0xbdf25766	-0.11833076
248	0x3d1d8cd4	0.038464382
249	0xbd800eda	-0.06252833
250	0x3d704630	0.058660686
251	0xbd8bb1be	-0.06821011
252	0xbcac0850	-0.021000057
253	0x3d9d8246	0.07690863
254	0x3c0b9d30	0.008521363
255	0xbdb6a53c	-0.08918235

fc1.bias f4 [128]
0	0xbdb1f6a3	-0.0868962
1	0xbd53be72	-0.051695295
2	0xbca556f2	-0.02018306
3	0xbe1c2cba	-0.15251437
4	0x3dab14da	0.083535865
5	0x3d8bc647	0.06824928
6	0x3cad4c45	0.021154532
7	0xbcd8276d	-0.026385987
8	0x3d32340c	0.043506667
9	0x3e7b3fc7	0.24536048
10	0x3c94d9a2	0.018170182
11	0xbe825ed1	-0.25462964
12	0xbc88077d	-0.016605133
13	0x3e8480e9	0.258796
14	0xbdc6fa2c	-0.09715685
15	0x3eab9cce	0.3351807
16	0xbdf39ce8	-0.11895162
17	0x3d9e7f77	0.07739156
18	0x3e8ef100	0.27918243
19	0xbc20ec54	-0.00982197
20	0xbe1347b4	-0.14382821
21	0x3e6928ae	0.22769424
22	0x3df2cd4d	0.11855564
23	0x3e4b9f85	0.1988507
24	0x3e28d981	0.16489221
25	0x3cafbab4	0.021451332
26	0xbdf63a6d	-0.120228626
27	0x3d625a2b	0.055261772
28	0x3e8b025b	0.27150235
29	0x3eb69d41	0.3566685
30	0x3e71e8ff	0.23624037
31	0xbda8cf64	-0.082426816
32	0x3e3c071b	0.18362086
33	0x3e74e309	0.23914732
34	0x3d735fbf	0.059417482
35	0x3e07681d	0.1322331
36	0x3ddee734	0.10883942
37	0x3e0be2c1	0.13660719
38	0xbc9ed17e	-0.019387003
39	0x3b965902	0.0045882473
40	0x3d3c0a35	0.04590817
41	0xbd9716e0	-0.0737741
42	0x3c486cf6	0.01223301
43	0x3dab0bac	0.083518356
44	0x3d4b6f29	0.049666557
45	0x3d89a050	0.0672003
46	0xbd51cca1	-0.05122054
47	0x3e179cb2	0.14805868
48	0x3d5c539b	0.05379067
49	0xbe1fb6dd	-0.155971
50	0x3d2f61dd	0.04281794
51	0x3eb8d4c4	0.36099827
52	0xbdf5f2de	-0.12009214
53	0x3e2ed4f7	0.17073427
54	0xbdcf06bf	-0.101087086
55	0x3e06f9f9	0.13181295
56	0x3e2e34f7	0.17012392
57	0x3d9b9e90	0.07598603
58	0x3e0771f1	0.13227059
59	0x3b980a63	0.00463991
60	0x3cc1937f	0.023629902
61	0x3e81361a	0.2523659
62	0x3ec9b3b9	0.3939493
63	0x3e15ad00	0.14616776
64	0x3e18fae9	0.14939465
65	0xbc9b46cc	-0.018954657
66	0x3eb66999	0.3562744
67	0x3dff6429	0.12470276
68	0x3cde4156	0.027130764
69	0x3e925887	0.28583166
70	0xbe296fa6	-0.16546497
71	0x3d88160a	0.066448286
72	0x3dc0cfc8	0.09414631
73	0x3d5a593e	0.053307764
74	0x3df19818	0.11796588
75	0x3e45f1b7	0.19330488
76	0xbdbad60d	-0.09122858
77	0x3e20a044	0.15686136
78	0x3ebf7210	0.3739171
79	0x3d7b14db	0.061299186
80	0x3e901c9f	0.28146836
81	0xbd8d0bb6	-0.06886999
82	0x3d093983	0.033502113
83	0xbd42fd7b	-0.04760502
84	0xbe107e9b	-0.14110796
85	0x3e6d313b	0.23163311
86	0x3e59bc77	0.212633
87	0xbd83ebbd	-0.06441448
88	0x3dcf1402	0.10111238
89	0xbda978ea	-0.08275016
90	0x3d862e5a	0.065518096
91	0xbd7e3f16	-0.062071882
92	0x3d8a389e	0.0674908
93	0x3e392059	0.18078746
94	0x3e950934	0.29108584
95	0x3d531aae	0.051539116
96	0x3e259599	0.16170348
97	0xbdcf0f1d	-0.101103045
98	0x3dfc467e	0.12318133
99	0x3e1f2f07	0.15545283
100	0x3e98301e	0.2972421
101	0xbb50912e	-0.0031824815
102	0x3c0540c6	0.008133119
103	0x3e8b9934	0.27265322
104	0x3e804890	0.2505536
105	0xbd48fd39	-0.049069617
106	0xbdadf90f	-0.0849477
107	0xbd453cc9	-0.048153672
108	0x3e73631e	0.23768279
109	0x3e3cc326	0.18433818
110	0x3eaf186c	0.3419832
111	0xbdb2134f	-0.08695089
112	0x3cdfa2c5	0.027299294
113	0xbdb8e697	-0.090283565
114	0xbdc7d4cd	-0.097573854
115	0xbd5c7e08	-0.05383113
116	0x3e48173b	0.19540112
117	0x3e10698b	0.14102761
118	0x3e9c863d	0.30571166
119	0x3d93b1af	0.07211625
120	0xbe367ae4	-0.17820317
121	0x3e9c6bd5	0.3055102
122	0x3dde5fe4	0.108581334
123	0x3cbefb8d	0.023313308
124	0xbc9f6b56	-0.019460361
125	0x3de008b4	0.1093916
126	0x3e4e408e	0.20141813
127	0x3e987269	0.29774788

fc2.weight f4 [5, 128]
0	0x3d566472	0.052341886
1	0x3d5476e7	0.051871207
2	0x3dc39a1f	0.09550881
3	0x3d13b763	0.036063563
4	0x3e859833	0.2609268
5	0x3d2d0445	0.0422404
6	0x3e1e556e	0.15462276
7	0xbda90331	-0.08252562
8	0xbc0d9835	-0.008642246
9	0x3e648a4a	0.22318378
10	0x3d66423e	0.056215517
11	0x3e17f1a9	0.1483828
12	0xbd985a3f	-0.07439088
13	0x3e23494e	0.15945932
14	0x3ccb1276	0.024789076
15	0x3e772687	0.24135791
16	0xbd0e65c7	-0.03476503
17	0xbca13162	-0.019676868
18	0x3e16b146	0.14716062
19	0x3d98f2e8	0.07468206
20	0x3d8f4a57	0.06996601
21	0x3e667312	0.22504833
22	0x3ea1d5d3	0.31608447
23	0x3e93a0d4	0.2883364
24	0x3e61e020	0.22058153
25	0xbe55dbfc	-0.20884699
26	0xbc6bf6d3	-0.014402109
27	0xbce82fec	-0.028343163
28	0x3e4cd584	0.20003325
29	0x3e60ce73	0.21953754
30	0x3e1f131f	0.15534638
31	0xbcb0b3a2	-0.02157003
32	0x3e267136	0.16254124
33	0x3e415976	0.18881783
34	0xbcf69cd7	-0.030104084
35	0x3e43299e	0.19058844
36	0x3c84b46d	0.016199315
37	0x3e903f8e	0.28173488
38	0xbd4ad6a0	-0.04952109
39	0x3d68a734	0.056800082
40	0x3d2ab890	0.04167992
41	0x3b6bdec8	0.0035990942
42	0xbd361ad5	-0.044459183
43	0x3e28bb32	0.1647766
44	0xbdc1680b	-0.09443673
45	0x3b83ebec	0.004025927
46	0x3cb34e78	0.021888003
47	0x3e8fdf6b	0.28100142
48	0x3e21e6c4	0.15810686
49	0x3cca67be	0.024707671
50	0x3b941275	0.004518802
51	0x3e60c0af	0.21948503
52	0x3d49d116	0.049271666
53	0x3e7d36f4	0.24727994
54	0x3d3963f3	0.045261335
55	0x3e907120	0.28211308
56	0x3e94b658	0.29045367
57	0x3e89bd68	0.26902318
58	0x3e2444c1	0.16041853
59	0x3e429638	0.19002616
60	0xbc2c3cf1	-0.010512576
61	0x3e8c2121	0.27369025
62	0x3e6a1f6a	0.22863546
63	0x3e909e07	0.28245565
64	0x3e854d8f	0.26035735
65	0x39937ed8	0.0002813253
66	0x3e887d9f	0.2665834
67	0x3e805556	0.25065106
68	0xbd0477cb	-0.032340806
69	0x3e43d2ad	0.19123335
70	0xbd813790	-0.06309426
71	0x3e36eaf9	0.17863072
72	0xbde9076b	-0.11378368
73	0x3db1cbc3	0.086814426
74	0x3e8e0514	0.2773825
75	0x3ecadd8d	0.39622155
76	0xbd59e042	-0.053192385
77	0x3de76c70	0.1129998
78	0x3e40b402	0.18818668
79	0x3df8bc35	0.12145273
80	0x3e62675a	0.22109738
81	0xbaf0faf6	-0.0018385339
82	0x3c8b6eea	0.017020661
83	0xbce5c5c5	-0.028048405
84	0xbd47d387	-0.048785713
85	0x3e7d0848	0.2471019
86	0x3e64aa7c	0.2233066
87	0x3ef30b07	0.4746935
88	0x3dbda44c	0.09259853
89	0xbd1cab9e	-0.038249604
90	0xbdea3d00	-0.11437416
91	0xbd75266a	-0.059851088
92	0x3dff0559	0.12452192
93	0x3e5f1875	0.21786673
94	0x3e6a1682	0.22860149
95	0x3d59ebf7	0.05320355
96	0x3e8a8be4	0.27059853
97	0x3cce89fe	0.025212284
98	0x3e93a9c3	0.28840455
99	0xbae04600	-0.0017110705
100	0x3e567580	0.2094326
101	0xbd1569d4	-0.03647788
102	0xbe062e56	-0.13103613
103	0x3e94938f	0.29018828
104	0x3e8e6eaf	0.2781882
105	0x3cdbbb28	0.026822641
106	0x3c18feb4	0.00933807
107	0xbcd4c413	-0.025972402
108	0x3e725546	0.23665342
109	0x3e6b40b1	0.22973897
110	0x3e7d84a0	0.24757624
111	0xbd34f08f	-0.044174727
112	0x3d1b6033	0.03793354
113	0xbd820561	-0.06348682
114	0x3d4a4a5a	0.049387313
115	0xbd2a6206	-0.04159739
116	0x3e632209	0.22180952
117	0x3e14faf3	0.14548855
118	0x3e5e1658	0.21688211
119	0x3e964786	0.29351443
120	0xbd1ef826	-0.03881087
121	0x3de70c6c	0.11281666
122	0x3dd7f02e	0.105438575
123	0xbe302fb6	-0.172057
124	0xbc73d4f6	-0.014882317
125	0x3e8ccde0	0.2750082
126	0x3e4960e5	0.19665869
127	0x3e7cd7f7	0.24691759
128	0xbc85a5e9	-0.016314464
129	0x3d43f62b	0.047842186
130	0x3ea34fab	0.3189672
131	0x3dd2c95f	0.10292315
132	0xbe873259	-0.264056
133	0x3bf37b64	0.007430481
134	0xbe5a162e	-0.21297523
135	0x3e16e94d	0.14737435
136	0x3b309845	0.0026946228
137	0xbeb3c1bc	-0.35108745
138	0x3d375a00	0.044763565
139	0xbe7190a2	-0.2359033
140	0x3d459a83	0.048243057
141	0x3de01fd2	0.10943569
142	0xbd3a9d4c	-0.045560166
143	0x3da9b3ef	0.08286273
144	0xbd5ebab1	-0.05437726
145	0x3dea1968	0.11430627
146	0x3d9fbb98	0.077994525
147	0xbe8e2627	-0.27763483
148	0x3c8ce4cd	0.017198944
149	0xbbff7037	-0.0077953595
150	0xbd28037a	-0.04101894
151	0x3c2c65c9	0.010522314
152	0xbe3c1673	-0.18367939
153	0x3e7dcb44	0.24784571
154	0xbe1252f7	-0.14289461
155	0x3c139fdf	0.009010284
156	0x3d24f594	0.040273264
157	0xbe347df9	-0.1762618
158	0xbc323f8b	-0.010879408
159	0x3e87634a	0.2644294
160	0x3e006b99	0.12541045
161	0x3d145811	0.0362168
162	0xbc2ca162	-0.010536524
163	0x3c062cc0	0.00818938
164	0x3da6c2a4	0.081425935
165	0x3c049d80	0.008094192
166	0x3c0da899	0.008646154
167	0x3d0f7ecd	0.035033036
168	0x3e84db02	0.2594834
169	0x3dcfda56	0.10149066
170	0xbd74136a	-0.059588827
171	0xbd8d1b62	-0.068899885
172	0x3e126ed7	0.14300095
173	0x3d69777a	0.056998707
174	0xbece6d12	-0.4031759
175	0xbdf5ddd4	-0.12005201
176	0x3cdff825	0.027340004
177	0x3dc5461d	0.09632514
178	0xbe726616	-0.23671755
179	0x3da2d05f	0.079499
180	0x3ddc360d	0.10752497
181	0x3d374087	0.044739272
182	0xbe9e37e1	-0.30902007
183	0xbcf3d49c	-0.029764466
184	0xbd0e030f	-0.034670886
185	0xbce75b66	-0.028241824
186	0x3b7d4338	0.0038644802
187	0x3e2e022d	0.16993017
188	0x3e642035	0.22277911
189	0x3d03ea28	0.03220573
190	0x3d09e411	0.033664767
191	0xbe741bde	-0.23838755
192	0x3d9849d6	0.07435958
193	0xbed444d0	-0.4145875
194	0xbe1a7a19	-0.15085639
195	0x3d8bbfef	0.06823718
196	0xbc72f666	-0.014829254
197	0xbd27e346	-0.04098823
198	0x3cc188af	0.023624746
199	0x3e20f0da	0.15716878
200	0x3e350714	0.17678481
201	0xbc0abd83	-0.008468035
202	0xbeb7b27d	-0.35878363
203	0xbd9addb7	-0.0756182
204	0xbc9585e1	-0.018252315
205	0xbd8492bf	-0.06473302
206	0x3cf623a7	0.030046297
207	0x3e039664	0.12850338
208	0x3dd413e7	0.103553586
209	0xbdc15b8b	-0.094412886
210	0x3ca7fb84	0.020505674
211	0x3bc93ca5	0.0061412626
212	0x3d82424a	0.063603
213	0x3d8baf0e	0.068204984
214	0x3d9c5041	0.07632495
215	0x3d0ac2f6	0.033877335
216	0xbfd386bd	-1.6525494
217	0xbdfb3f18	-0.122678936
218	0x3e6ce84e	0.23135492
219	0xbd90cd9c	-0.07070467
220	0xbd4d26a4	-0.05008568
221	0x3c02d369	0.007984974
222	0x3dc73391	0.097266324
223	0x3c5818f3	0.013189542
224	0x3dd65a8e	0.10466491
225	0x3cdbd0aa	0.026832897
226	0xbd9cdbf6	-0.07659142
227	0x3d7cbf08	0.06170562
228	0xbd03ece0	-0.032208323
229	0x3c7da05e	0.015480129
230	0xbd10b28b	-0.03532652
231	0x3e672da5	0.22576006
232	0x3d84a3cd	0.06476555
233	0x3c05c3d7	0.008164368
234	0x3cf6ae80	0.030112505
235	0x3e9836ec	0.29729402
236	0x3ca62c3b	0.020284763
237	0x3d8fbfdf	0.070190184
238	0x3da3facc	0.0800682
239	0x3d74be32	0.059751697
240	0xbd0e46ba	-0.03473542
241	0x3d844a6a	0.06459506
242	0xbc1e3d13	-0.009658116
243	0x39f6abce	0.0004704878
244	0x3ce5ac28	0.028036192
245	0xbeefe976	-0.46857804
246	0xbd9175c4	-0.0710254
247	0xbb6dcce0	-0.0036285445
248	0x3ad0f6a3	0.0015942644
249	0x3e25b63e	0.16182801
250	0xbe0f2f94	-0.13982993
251	0x3da204d7	0.079110794
252	0x3dc38175	0.09546176
253	0x3d2631c8	0.04057482
254	0xbbc927d0	-0.006138779
255	0x3d57955c	0.052632675

fc2.bias f4 [5]
0	0x3d9c6b7d	0.07637689
1	0x3ddcc176	0.10779087
2	0x3a5a2300	0.00083212554
3	0x3e68f214	0.22748595
4	0x3d35f393	0.044421744
